models/mlp_model_20250821_164215.pth (torch, 54744 bytes, 7 tensors)

model.0.weight f4 [128, 18]
-0.12327702 0.09719593 0.20378691 0.045294844 0.017064892 0.47382575 0.42152622 -0.123944595
-0.19558313 -0.026228046 0.2257941 -0.04954292 -0.03888297 -0.29706258 -0.036584724 0.015953526
-0.051182155 0.1330334 0.32143646 0.05327516 0.23811561 -0.012436605 -0.046503663 -0.01850569
0.0060338415 -0.08393943 -0.24367625 -0.34031093 0.09935427 -0.4027532 0.10712367 0.001389637
-0.060512025 -0.04813439 0.13862747 0.0895544 0.01691679 -0.036689874 0.15442273 0.07685265
0.30899483 -0.44280002 0.81357807 -0.20940544 -0.08273113 -0.018213544 0.14360267 0.0052149254
0.23855007 0.063168995 0.22845928 -0.1612415 -0.001088214 -0.07009265 0.08102403 -0.21609628
0.074562944 0.295828 0.009816806 0.20756783 0.31680724 0.38337317 -0.0680589 -0.016175242
-0.051989935 0.059180185 -0.4567627 0.030649502 -0.22212107 -0.07698508 0.0015305508 -0.14764585
-0.58933616 0.114318 0.075095356 0.21810986 0.28381756 -0.19312938 0.38035658 0.4432135
-0.10835838 -0.03766668 0.0831238 -0.02127121 -0.35000148 -0.05797163 -0.4230601 0.012639662
0.074578874 0.09411931 0.2859923 -0.11021053 0.30641085 -0.0388232 0.19162954 -0.008349998
0.004703317 0.030982735 -0.2699983 0.47873607 -0.07065027 -0.04048969 0.11014482 0.050183777
-0.08005425 -0.24467704 -0.05096138 -0.018446794 0.4231546 -0.14936535 -0.04751649 0.060878854
0.067455284 -0.023868818 0.0050061787 0.049680635 0.08456348 0.104236886 0.042697784 0.037005838
-0.2914326 0.028735826 -0.22530372 -0.24329476 -0.08796956 -0.2371659 -0.41359177 -0.1836668
-0.0861905 -0.059234597 0.20655094 0.01562605 -0.053490013 0.008041231 0.09398575 -0.052461814
0.07480802 -0.062874205 -0.23936667 -0.049823277 -0.16215476 -0.4236534 0.014533224 -0.46106392
-0.010940906 -0.077019505 0.19594228 0.14098252 0.10499529 0.024524035 -0.041418016 -0.018828457
-0.15361784 -0.101794474 0.008472297 -0.22673295 0.2766873 -0.06296355 0.13364719 0.13044995
-0.062049344 0.09070938 -0.10616343 -0.1071515 0.30016008 -0.005930141 -0.23835456 0.29051715
-0.37322488 -0.05447272 0.29571024 -0.08203198 0.02317244 -0.10951113 0.07912419 0.03026692
0.17476776 -0.25731057 -0.049394347 -0.32060796 0.29954547 0.24615093 -0.027920095 -0.08256681
0.005586678 0.26134714 0.17245592 -0.002629888 0.17919204 0.07356653 -0.23352872 0.009638077
-0.16521862 0.028067173 -0.19932266 -0.16634503 0.03809171 -0.15995239 -0.079729654 0.066206254
0.04468596 -0.12025335 -0.29739016 -0.09674213 -0.19723924 0.24630952 0.2732858 0.16022247
-0.019059688 0.06730171 0.021432793 0.20056038 0.082817905 0.12916964 -0.09881219 -0.017502135
-0.08533528 0.23369935 -0.26153693 -0.0364338 0.09709408 -0.0061970507 -0.042768236 0.06557543
0.398457 -0.07207877 0.03432589 -0.1493488 -0.37893903 0.029921237 -0.30632535 -0.24757122
0.08705851 -0.4122936 0.032302175 0.16510385 -0.31163886 -0.2961497 0.14561927 0.057267997
0.06688181 0.043906298 -0.11920808 0.3012825 0.032147344 0.09653244 -0.0152644515 -0.089610815
-0.104830764 0.131193 0.062047463 -0.06382031 0.012322749 -0.13382827 0.016762678 -0.2710998
00000000: aa78 fcbd a90e c73d 84ad 503e 1687 393d
00000010: accb 8b3c 4a99 f23e 49d2 d73e aad6 fdbd
00000020: f246 48be 33dc d6bc 9236 673e 84ed 4abd
00000030: c043 1fbd 9618 98be ddd9 15bd f8b0 823c
00000040: 61a4 51bd e839 083e 5293 a43e 0e37 5a3d
00000050: 94d4 733e e7c2 4bbc a07a 3ebd 3f99 97bc
00000060: 88b7 c53b 70e8 abbd 4486 79be 3c3d aebe
00000070: 407a cb3d ab35 cebe a863 db3d 7b24 b63a
00000080: 75db 77bd 9128 45bd 5cf4 0d3e 4c68 b73d
00000090: 1495 8a3c 1f48 16bd fe20 1e3e ec64 9d3d
000000a0: 9234 9e3e afb6 e2be a746 503f 616e 56be
000000b0: f06e a9bd 9234 95bc 940c 133e f7e1 aa3b
000000c0: 7846 743e bf5e 813d 3bf1 693e 7e1c 25be
000000d0: 67a2 8eba bc8c 8fbd edef a53d 5848 5dbe
000000e0: 75b4 983d c576 973e abd6 203c a98c 543e
000000f0: 8f34 a23e 7d49 c43e 7762 8bbd f181 84bc
00000100: 66f3 54bd ec66 723d cddc e9be aa14 fb3c
00000110: b573 63be 5baa 9dbd c39c c83a 7930 17be
00000120: bcde 16bf 8e1f ea3d 98cb 993d 3158 5f3e
00000130: 8950 913e b5c3 45be 19be c23e e1ec e23e
00000140: 00eb ddbd 6048 1abd d03c aa3d f640 aebc
00000150: 6533 b3be a973 6dbd 559b d8be 9616 4f3c
00000160: cfbc 983d a0c1 c03d 956d 923e 0fb6 e1bd
00000170: e2e1 9c3e 1305 1fbd 893a 443e 6ece 08bc
00000180: 481e 9a3b 81cf fd3c 383d 8abe e51c f53e
00000190: 17b1 90bd 84d8 25bd 9b93 e13d 818d 4d3d
000001a0: 7cf3 a3bd 9e8c 7abe e1bc 50bd bb1d 97bc
000001b0: b8a7 d83e 3bf3 18be a7a0 42bd 1b5c 793d
000001c0: ff25 8a3d 8a88 c3bc df0a a43b ec7d 4b3d
000001d0: 9e2f ad3d 267a d53d dfe3 2e3d 6f93 173d
000001e0: a736 95be 6567 eb3c 05b6 66be 4322 79be
000001f0: 6229 b4bd 9edb 72be 4dc2 d3be 2613 3cbe
00000200: a584 b0bd fa9f 72bd 1782 533e 3402 803c
00000210: 5818 5bbd 5ebf 033c 9a7b c03d 33e2 56bd
00000220: f234 993d 31c4 80bd 891c 75be 7e13 4cbd
00000230: e60b 26be 19e9 d8be c21c 6e3c 9210 ecbe
00000240: 7c41 33bc 67bc 9dbd 18a5 483e b95d 103e
00000250: c507 d73d a1e6 c83c f0a5 29bd 233e 9abc
00000260: ff4d 1dbe 9f79 d0bd 64cf 0a3c af2c 68be
00000270: f5a9 8d3e 09f3 80bd cfda 083e ac94 053e
00000280: 7427 7ebd d7c5 b93d 366c d9bd 3f72 dbbd
00000290: 95ae 993e a151 c2bb 3813 74be aabe 943e
000002a0: 5517 bfbe c91e 5fbd 5567 973e 6200 a8bd
000002b0: 21d4 bd3c 5f47 e0bd dd0b a23d 55f2 f73c
000002c0: 52f6 323e 36be 83be ba51 4abd ba26 a4be
000002d0: 065e 993e fd0e 7c3e afb8 e4bc ca18 a9bd
000002e0: 7410 b73b 4bcf 853e 4998 303e 335a 2cbb
000002f0: 1e7e 373e 0daa 963d 2722 6fbe 06e9 1d3c
00000300: 122f 29be 21ed e53c 3d1b 4cbe 5a56 2abe
00000310: 0e06 1c3d 8fca 23be 4d49 a3bd 2597 873d
00000320: a008 373d 6347 f6bd 8643 98be bd20 c6bd
00000330: 15f9 49be 9038 7c3e 1eec 8b3e 5c11 243e
00000340: 1023 9cbc 7bd5 893d d393 af3c b35f 4d3e
00000350: 6f9c a93d 0c45 043e 0c5e cabd a360 8fbc
00000360: 43c4 aebd e24e 6f3e 2be8 85be 9c3b 15bd
00000370: 43d9 c63d a110 cbbb bf2d 2fbd 694c 863d
00000380: 8e02 cc3e 099e 93bd 4e99 0c3d e4ee 18be
00000390: 4c04 c2be 621d f53c add6 9cbe 4f83 7dbe
000003a0: bb4b b23d 2618 d3be 494f 043d fc10 293e
000003b0: 218f 9fbe efa0 97be 381d 153e d991 6a3d
000003c0: 55f9 883d 17d7 333d 5e23 f4bd b341 9a3e
000003d0: efac 033d cdb2 c53d c017 7abc e085 b7bd
000003e0: 83b1 d6bd 7557 063e 7b25 7e3d 39b4 82bd
000003f0: 5be5 493c 470a 09be e251 893c 98cd 8abe

model.0.bias f4 [128]
-0.7385038 0.6146294 0.36520833 -0.44640905 0.014349463 0.40264273 -0.08236312 0.5797444
0.5395658 0.4507142 -0.4624268 -0.45370197 -0.012722163 0.17816874 0.6356272 0.41664264
0.5167715 -0.49962065 -0.10769538 -0.26491833 -0.61829394 0.4712336 0.71448666 0.101908304
0.56257784 -0.44546384 -0.1741926 0.2437331 0.60431355 0.40328193 0.44313934 0.36219716
0.4150285 -0.26941228 0.034913067 0.0995022 -0.24499203 -0.095004804 0.46836126 0.3422775
0.36414877 0.33797708 0.1449833 0.0076940884 0.057958174 -0.13383894 0.7889852 0.68804324
0.18553114 0.20413066 -0.30503616 -0.28320962 0.71995103 -0.5222361 0.68976635 -0.41305044
-0.43742302 0.5809258 -0.11571988 0.59178287 0.51157266 -0.35267955 0.5883687 0.47100562
0.5845717 0.75212777 0.29947716 -0.8826901 0.8732128 0.075658776 0.2663918 0.4975457
-0.07901714 0.6602022 0.10970962 0.18059121 0.7885392 -0.5686915 0.32532027 0.13489066
0.8065253 0.7854641 0.09570781 0.43065763 0.08029964 0.4663186 -0.26673305 0.7312178
0.48149794 0.42931297 0.53930765 0.7168864 -0.031703033 -0.09645449 0.6004484 0.44333652
-0.078612596 -0.42098373 -0.003647857 0.031046731 0.7564065 0.8494992 0.27563602 0.09599466
0.5031969 0.57426107 0.4096818 0.82366353 0.6979745 0.10497498 0.73498744 -0.08768148
0.55128974 0.47837853 0.055429816 -0.35988218 -0.24581532 0.8262279 -0.017610647 -0.4730286
0.55848414 0.19536892 0.7884273 0.107960835 -0.3751582 -0.53842634 0.4196314 -0.5683119
00000000: 960e 3dbf 5a58 1d3f 96fc ba3e ba8f e4be
00000010: 031a 6b3c 3027 ce3e ffad a8bd 216a 143f
00000020: fc20 0a3f 03c4 e63e 35c3 ecbe a04b e8be
00000030: 9f70 50bc de71 363e 77b8 223f 2f52 d53e
00000040: 234b 043f 47ce ffbe 658f dcbd 60a3 87be
00000050: 8348 1ebf 8845 f13e 99e8 363f 4db5 d03d
00000060: 1a05 103f d613 e4be 8c5f 32be 2b95 793e
00000070: 4bb4 1a3f f87a ce3e 29e3 e23e e871 b93e
00000080: 9e7e d43e 68f0 89be 0101 0f3d cfc7 cb3d
00000090: 31df 7abe e191 c2bd 0ccd ef3e ff3e af3e
000000a0: b571 ba3e 550b ad3e 8176 143e b11e fc3b
000000b0: 8d65 6d3d 130d 09be effa 493f 9a23 303f
000000c0: e0fb 3d3e a107 513e b32d 9cbe da00 91be
000000d0: b64e 383f 44b1 05bf 8794 303f 597b d3be
000000e0: e9f5 dfbe 8eb7 143f 8bfe ecbd 157f 173f
000000f0: 6df6 023f 6a92 b4be 559f 163f a627 f13e
00000100: 7ea6 153f 728b 403f 1255 993e faf7 61bf
00000110: e08a 5f3f fdf2 9a3d 8264 883e 4fbe fe3e
00000120: bdd3 a1bd 0303 293f 70af e03d e7ec 383e
00000130: b4dd 493f c495 11bf 6190 a63e c720 0a3e
00000140: 7178 4e3f 2d14 493f 7502 c43d 287f dc3e
00000150: 2374 a43d 50c1 ee3e 3c91 88be 1731 3b3f
00000160: e686 f63e e9ce db3e 1110 0a3f de85 373f
00000170: 0adb 01bd ef89 c5bd fdb6 193f 01fd e23e
00000180: a4ff a0bd 2e8b d7be e310 6fbb b755 fe3c
00000190: dba3 413f c878 593f 2a20 8d3e d998 c43d
000001a0: 83d1 003f c602 133f d0c1 d13e 9ddb 523f
000001b0: 75ae 323f 1ffd d63d 2328 3c3f 5992 b3bd
000001c0: 5321 0d3f 08ee f43e 600a 633d 7a42 b8be
000001d0: 03b7 7bbe ac83 533f 3444 90bc ce30 f2be
000001e0: d1f8 0e3f ca0e 483e 5fd6 493f 921a dd3d
000001f0: bc14 c0be 4fd6 09bf edd9 d63e e47c 11bf

model.2.weight f4 [64, 128]
-0.4365545 -0.124260426 -0.10126253 -0.24897455 -0.14625438 -0.14112213 -0.17742705 -0.0037802116
-0.37811425 -0.17377113 -0.17454964 -0.10981418 -0.36820582 -0.0022133042 0.06485775 -0.16080986
-0.16544472 -0.26135355 -0.2868276 -0.159006 -0.38487864 -0.04111975 -0.00961314 -0.34483033
-0.18941899 -0.26896298 -0.17153016 -0.1115882 -0.03394462 -0.1922349 0.057465553 -0.009693529
0.023883091 -0.57217604 0.02828836 -0.21584326 -0.14710185 -0.22035508 -0.037250265 -0.001769225
0.007507553 -0.028308049 -0.07737441 -0.13784774 -0.06732965 -0.046631217 -0.17458747 -0.029686539
0.011801075 0.051310077 0.085159905 -0.085564874 -0.15398195 -0.41633907 -0.26662502 -0.08388579
-0.32260695 0.107354715 0.12932758 -0.09141998 0.069045365 -0.017563934 0.025738973 0.042519104
-0.14408202 0.015209031 0.06509015 -0.35377964 -0.1772836 -0.17606771 -0.012478994 -0.15893018
-0.13859126 -0.14621958 -0.15885043 -0.05897216 0.04337089 -0.52668303 0.02134302 0.0052884743
0.043783467 -0.07709122 0.022901168 -0.05895553 -0.17604455 -0.116640896 -0.2960798 0.11256979
-0.037072886 0.012068766 -0.20813832 -0.025711713 -0.088603064 -0.13600136 -0.11022752 -0.033391215
-0.14291723 -0.5777887 0.041509997 -0.34224132 0.09587982 -0.017116783 0.04702737 0.01893862
-0.06244236 0.07208875 -0.12359389 -0.048740864 -0.14845873 -0.24546966 -0.07695844 -0.3365532
-0.10373596 0.03259325 0.0045539746 0.042903747 -0.12950112 0.029398594 -0.14060238 -0.8387743
-0.031253483 0.07910513 -0.037947275 -0.30302283 -0.096395366 -0.7936452 0.055229377 -0.13817714
-0.29901817 0.15897368 0.06310795 0.19552498 0.07838051 0.091838494 0.037380937 0.15852036
0.11850478 0.16945234 -0.12680048 -0.2107304 0.079935186 0.105550766 0.21525949 -0.036078513
0.09697217 -0.13924414 0.19065697 -0.112593964 -0.5436018 0.08082338 0.13077924 -0.014764233
0.1295168 -0.016359268 0.11812302 0.020345122 0.09506256 0.1975069 0.13056141 0.10442654
0.119896546 0.16503975 0.07111164 0.030165851 -0.08086205 -0.060711797 0.05326092 0.13059072
0.041641794 -0.01588958 -0.014831057 -0.063681796 0.11090181 -0.06688515 0.18220855 0.10211077
0.0662854 0.054525297 0.08923706 -0.006330177 0.2668576 -0.26418376 0.20975156 -0.14776272
-0.37009412 0.2563521 -0.01030571 0.10467042 0.09947042 -0.10210631 0.042931583 -0.012247141
0.01521772 0.24038999 0.17223954 -0.6510332 0.32974812 0.022171637 0.099702045 0.046713945
-0.11941781 0.12923653 -0.10218744 0.04683843 0.25063783 -0.5838557 0.15275146 0.032517053
0.26947272 0.2054532 0.104422264 0.008268371 0.25949806 0.11494098 -0.06910315 0.11872378
0.1426998 0.15886751 0.03444947 0.07343778 0.071463004 -0.053739674 0.2564657 0.099337
0.06335069 -0.3332695 0.079737104 0.069906995 0.24518551 0.16440299 -0.025163475 0.01155681
0.1387573 0.16043559 0.16103397 0.05425786 0.0183679 -0.06179627 0.098973125 -0.04430775
0.090124235 -0.056236725 -0.044946086 -0.017835476 -0.026962306 0.18193178 -0.022249673 -0.5015249
0.1897722 0.060095057 0.09841279 -0.07809014 0.003795352 -0.4765329 0.027282579 -0.22597478
00000000: 1284 dfbe 407c febd bb62 cfbd 2ff3 7ebe
00000010: b5c3 15be 5282 10be 70af 35be 6dbd 77bb
00000020: 3198 c1be 0ff1 31be 24bd 32be 42e6 e0bd
00000030: 7985 bcbe 150d 11bb 24d4 843d 57ab 24be
00000040: 576a 29be 22d0 85be 11db 92be 78d2 22be
00000050: d00e c5be 2f6d 28bd 6e80 1dbc 9a8d b0be
00000060: 0df7 41be 84b5 89be 9aa5 2fbe 5b88 e4bd
00000070: 8409 0bbd 3ad9 44be 0061 6b3d 9cd1 1ebc
00000080: 79a6 c33c 217a 12bf febc e73c 0406 5dbe
00000090: dea1 16be c3a4 61be bc93 18bd 57e5 e7ba
000000a0: eb01 f63b 48e6 e7bc 7a76 9ebd f527 0dbe
000000b0: 21e4 89bd 6000 3fbd 0fc7 32be 2f31 f3bc
000000c0: 4c59 413c 842a 523d 5168 ae3d a33c afbd
000000d0: 72ad 1dbe 652a d5be 1383 88be 50cc abbd
000000e0: bd2c a5be cadc db3d 736e 043e 663a bbbd
000000f0: a867 8d3d 3de2 8fbc 8ada d23c 8328 2e3d
00000100: 3d8a 13be 4d2f 793c fc4d 853d 9b22 b5be
00000110: d589 35be 184b 34be b274 4cbc 98be 22be
00000120: deea 0dbe 96ba 15be b0a9 22be cb8c 71bd
00000130: ada5 313d b3d4 06bf 8fd7 ae3c f04a ad3b
00000140: 4b56 333d 00e2 9dbd 3b9b bb3c 5b7b 71bd
00000150: 0645 34be 6ce1 eebd c697 97be fd8a e63d
00000160: bdd9 17bd 13bc 453c 3622 55be 5fa1 d2bc
00000170: 8675 b5bd f143 0bbe f7be e1bd 3ac5 08bd
00000180: e558 12be f6e9 13bf 6306 2a3d 413a afbe
00000190: a45c c43d 7f38 8cbc c69f 403d 2a25 9b3c
000001a0: 8fc3 7fbd 44a3 933d cb1e fdbd 80a4 47bd
000001b0: 9105 18be 665c 7bbe 639c 9dbd b350 acbe
000001c0: 8573 d4bd 8080 053d 8239 953b d7bb 2f3d
000001d0: f19b 04be 52d5 f03c 12fa 0fbe eab9 56bf
000001e0: a703 00bd df01 a23d 9a6e 1bbd cf25 9bbe
000001f0: ef6a c5bd 552c 4bbf 3338 623d 4f7e 0dbe
00000200: e918 99be ffc9 223e be3e 813d b337 483e
00000210: f685 a03d d215 bc3d c11c 193d 2953 223e
00000220: a2b2 f23d ea84 2d3e fcd7 01be b6c9 57be
00000230: 0fb5 a33d 002b d83d fc6c 5c3e 10c7 13bd
00000240: 5899 c63d 0496 0ebe 953b 433e aa97 e6bd
00000250: 7d29 0bbf ba86 a53d feea 053e aee5 71bc
00000260: 0da0 043e df03 86bc 7bea f13d d0aa a63c
00000270: 29b0 c23d 403f 4a3e e4b1 053e 95dd d53d
00000280: 528c f53d 2e00 293e fba2 913d 601e f73c
00000290: 019b a5bd efac 78bd 1f28 5a3d 93b9 053e
000002a0: 9690 2a3d dd2a 82bc f6fd 72bc 9a6b 82bd
000002b0: 7d20 e33d 15fb 88bd e194 3a3e 741f d13d
000002c0: a4c0 873d eb55 5f3d ebc1 b63d 606d cfbb
000002d0: 8fa1 883e 1843 87be 1dc9 563e 1c4f 17be
000002e0: fa7c bdbe 9540 833e 48d9 28bc 725d d63d
000002f0: 26b7 cb3d 1d1d d1bd 07d9 2f3d 3ca8 48bc
00000300: be53 793c cb28 763e 905f 303e 1daa 26bf
00000310: bfd4 a83e 4ba1 b53c 9630 cc3d 1f57 3f3d
00000320: 5391 f4bd 9556 043e a647 d1bd a7d9 3f3d
00000330: 9a53 803e 9177 15bf e16a 1c3e 9a30 053d
00000340: 54f8 893e 5362 523e 57db d53d 1078 073c
00000350: eedc 843e 2d66 eb3d f485 8dbd 7425 f33d
00000360: e51f 123e 2aae 223e e31a 0d3d 8c66 963d
00000370: 325b 923d 221e 5cbd 794f 833e 3271 cb3d
00000380: 02be 813d 4da2 aabe 354d a33d 662b 8f3d
00000390: e911 7b3e 4259 283e a223 cebc c658 3d3c
000003a0: 6516 0e3e 3a49 243e 17e6 243e 7d3d 5e3d
000003b0: 4778 963c 161e 7dbd 6cb2 ca3d 0b7c 35bd
000003c0: 0e93 b83d 7b58 66bd 6319 38bd b41b 92bc
000003d0: 0ee0 dcbc 534c 3a3e f244 b6bc f063 00bf
000003e0: a553 423e 3c26 763d a58c c93d b9ed 9fbd
000003f0: 71bb 783b 1ffc f3be b77f df3c ef65 67be

model.2.bias f4 [64]
0.067231 0.6286761 0.67260593 0.4650869 0.5992041 0.25756204 0.63638526 0.732419
-0.056009647 0.4774989 0.5953787 0.15808856 -0.049231477 0.04886346 0.5478771 -0.034420557
0.6729831 -0.06732802 -0.07846215 0.75476193 -0.042547915 0.6684369 -0.118676804 0.62415916
0.6712671 0.5489925 -0.03241939 0.5732451 -0.060630243 0.07336701 -0.052330974 -0.044906583
0.6396513 0.048771538 -0.48733115 0.5710425 0.612268 0.61553407 0.065323666 -0.02084078
-0.05221473 -0.016865997 0.02164891 0.64586675 0.3756038 0.34330633 -0.055836473 0.6340355
0.06817945 -0.0117582325 -0.08693525 0.58897394 0.5102827 0.4710286 -0.054015428 -0.052624736
0.0366301 0.5534125 0.68862617 -0.066328265 0.312948 0.05129366 0.12164991 -0.11297996
00000000: 68b0 893d ebf0 203f e72f 2c3f df1f ee3e
00000010: 7165 193f 2cdf 833e 25ea 223f d07f 3b3f
00000020: 5f6a 65bd bc7a f43e bd6a 183f f8e1 213e
00000030: f2a6 49bd 0d25 483d ac41 0c3f 92fc 0cbd
00000040: 9f48 2c3f 46e3 89bd c4b0 a0bd 1438 413f
00000050: b946 2ebd ae1e 2b3f d30c f3bd e5c8 1f3f
00000060: 29d8 2b3f c68a 0c3f 32ca 04bd 31c0 123f
00000070: 6b57 78bd 7141 963d 0159 56bd f7ef 37bd
00000080: 30c0 233f aac4 473d 7883 f9be d72f 123f
00000090: 98bd 1c3f a493 1d3f 6ac8 853d 49ba aabc
000000a0: 1ddf 55bd 8f2a 8abc 0e59 b13c 8657 253f
000000b0: 244f c03e d9c5 af3e c9b4 64bd 2750 223f
000000c0: aba1 8b3d 9aa5 40bc 1c0b b2bd ffc6 163f
000000d0: e3a1 023f a92a f13e 483f 5dbd 098d 57bd
000000e0: 7209 163d 71ac 0d3f ce49 303f 1dd7 87bd
000000f0: b83a a03e 4d19 523d 9723 f93d 0a62 e7bd

model.4.weight f4 [32, 64]
0.100363255 -0.059741046 -0.010780346 -0.021704067 -0.058063954 -0.026931256 0.08880884 -0.10911194
0.116784014 0.020606682 -0.018179918 -0.0605679 -0.09416221 0.007822915 0.03655885 -0.09170838
-0.025225049 0.032262348 0.08163071 -0.08457303 -0.12145267 0.035208 -0.11886771 -0.117529236
0.1119971 -0.1310894 -0.06674087 -0.09122818 -0.07510458 0.015441113 -0.079548284 0.113552526
0.06526012 -0.11523038 -0.10515748 0.07464101 0.053483814 -0.05889117 -0.07351829 0.053318318
0.07817258 -0.12433378 -0.06961675 0.079409 -0.06822054 -0.109216765 -0.0455759 0.037332226
0.07299791 -0.011559812 -0.020429667 -0.03863074 0.1087867 -0.046176076 0.1027104 -0.020562274
-0.04209163 0.008587104 0.11043604 0.047198378 0.11509572 -0.08775802 -0.07859642 0.023370547
-0.084628075 0.023746163 0.086891085 -0.0033558789 0.111987665 -0.04207644 -0.11695122 -0.055085585
0.017003236 -0.021799356 -0.010962728 -0.09105241 0.048471022 0.08751439 0.09704794 -0.051471602
0.11312291 0.030031323 -0.04032278 -0.047981426 0.04938981 0.04559408 0.05574985 0.016586494
-0.04407761 0.068439744 0.11238591 -0.068528116 -0.07181406 0.052634872 -0.0664466 -0.118837394
0.07641406 -0.025429828 -0.039224256 -0.058662165 -0.103449956 -0.023782203 0.07176924 0.10614382
-0.08063078 -0.09320639 0.039427236 -0.12054071 -0.033751834 -0.004010989 -0.031508587 -0.08414258
0.071074635 0.062465534 0.08392464 -0.09414232 -0.047504008 -0.0358634 0.08933401 0.026959728
-0.04828559 -0.049223486 0.02511932 -0.056339897 0.056410536 -0.07645704 0.07383727 0.122145265
0.015665395 0.06964578 0.14209554 0.082763895 0.0809802 0.05054791 8.363812e-05 0.20425616
0.05182244 0.036896013 0.14445332 0.01460828 0.032275032 0.08679839 0.027542183 0.014069519
0.17717862 -0.054036625 -0.0775592 0.23896581 0.0809956 0.18298796 0.15296492 0.13704519
0.20256709 0.10769019 0.07570963 0.23262325 -0.00069716125 -0.009335683 -0.058090705 0.089590855
0.052671313 0.12846266 -0.62956226 -0.027274894 0.11889969 0.057450335 -0.10081901 -0.005098242
-0.05475412 0.028731767 -0.031796303 0.19284612 -0.042120393 0.041132085 -0.09757956 0.03634509
-0.05599924 -0.023044156 0.082367726 0.09612773 0.086168185 -0.041829888 0.018453715 -0.030770186
-0.032780804 0.11118901 0.18282004 -0.023122178 0.017798863 -0.031961724 0.029226398 0.03672136
0.044879705 -0.11770325 0.058957163 -0.060033932 0.10115364 0.11452109 -0.09491469 -0.0887525
-0.08612119 -0.0041538826 0.06991155 -0.11351541 -0.104358524 -0.08488944 0.0017497779 -0.018130269
-0.03826852 -0.12789991 -0.04837992 0.09220469 -0.08330654 -0.0764405 -0.07829164 -0.05982695
-0.096114144 0.03775065 -0.08402153 0.09358713 0.08791319 0.016811376 -0.12070772 -0.0036499843
-0.02306523 0.09279647 -0.07234774 0.09263999 0.07750066 0.024736054 0.0760462 0.08269894
-0.019702852 0.08067139 0.0060362965 -0.09228976 -0.06422833 -0.09655815 -0.080247775 -0.07605168
-0.12381236 -0.059059527 -0.056548897 -0.07364212 0.07216748 -0.10559143 0.081063375 -0.045517266
0.07926926 -0.05283185 -0.11607381 -0.12337314 0.07298967 -0.035153195 0.08572534 0.056746233
00000000: 408b cd3d 07b3 74bd 0ca0 30bc bacc b1bc
00000010: 78d4 6dbd f09e dcbc 69e1 b53d 1576 dfbd
00000020: 752c ef3d 58cf a83c 0dee 94bc 0c16 78bd
00000030: 1ed8 c0bd af2b 003c bcbe 153d 9ad1 bbbd
00000040: c3a4 cebc 8625 043d 002e a73d a034 adbd
00000050: 2dbc f8bd 4436 103d ea70 f3bd 2bb3 f0bd
00000060: bc5e e53d 4d3c 06be 70af 88bd d7d5 babd
00000070: 6ed0 99bd b9fc 7c3c 36ea a2bd 3a8e e83d
00000080: 19a7 853d e8fd ebbd ce5c d7bd 63dd 983d
00000090: d811 5b3d de37 71bd c290 96bd 4f64 5a3d
000000a0: f218 a03d b5a2 febd 3a93 8ebd 30a1 a23d
000000b0: 36b7 8bbd 0aad dfbd cbad 3abd ade9 183d
000000c0: ee7f 953d 5e65 3dbc 1e5c a7bc 443b 1ebd
000000d0: 90cb de3d 2023 3dbd d559 d23d 3772 a8bc
000000e0: 4668 2cbd edb0 0c3c 4a2c e23d 1653 413d
000000f0: 4eb7 eb3d 7aba b3bd 29f7 a0bd 9773 bf3c
00000100: 7c51 adbd 5087 c23c f4f3 b13d 4eee 5bbb
00000110: ca59 e53d 5858 2cbd 1f84 efbd 6ca1 61bd
00000120: 5f4a 8b3c 9094 b2bc 049d 33bc b079 babd
00000130: 8d89 463d bf3a b33d 12c1 c63d e3d3 52bd
00000140: fcac e73d 4004 f63c 8029 25bd 2c88 44bd
00000150: f84c 4a3d dcc0 3a3d f459 643d 66e0 873c
00000160: b98a 34bd 232a 8c3d 952a e63d 7858 8cbd
00000170: 4013 93bd aa97 573d 2815 88bd 0561 f3bd
00000180: fa7e 9c3d 3752 d0bc 9da9 20bd bd47 70bd
00000190: 92dd d3bd e5d2 c2bc c0fb 923d ee61 d93d
000001a0: c021 a5bd fee2 bebd 747e 213d 0cde f6bd
000001b0: 5d3f 0abd 9d6e 83bb 260f 01bd f252 acbd
000001c0: 948f 913d dcdb 7f3d afe0 ab3d b0cd c0bd
000001d0: 9093 42bd 80e5 12bd c0f4 b63d a6da dc3c
000001e0: 1cc7 45bd 919e 49bd 08c7 cd3c aac4 66bd
000001f0: bc0e 673d 8295 9cbd ff37 973d 4c27 fa3d
00000200: b754 803c 72a2 8e3d 7e81 113e 1e80 a93d
00000210: f2d8 a53d 530b 4f3d e066 af38 8728 513e
00000220: c443 543d 4620 173d 92eb 133e 9157 6f3c
00000230: d332 043d 5bc3 b13d 25a0 e13c d783 663c
00000240: 506e 353e 8255 5dbd 5cd7 9ebd 74b3 743e
00000250: 05e1 a53d 3261 3b3e d6a2 1c3e 9355 0c3e
00000260: bf6d 4f3e ad8c dc3d a70d 9b3d ca34 6e3e
00000270: b3c1 36ba b1f4 18bc 85f0 6dbd 697b b73d
00000280: e0bd 573d b78b 033e fe2a 21bf 996f dfbc
00000290: ae81 f33d 0b51 6b3d 327a cebd 270f a7bb
000002a0: db45 60bd e25e eb3c d73c 02bd 7479 453e
000002b0: 6f86 2cbd 1e7a 283d cbd7 c7bd 97de 143d
000002c0: 765f 65bd 19c7 bcbc 69b0 a83d 9ede c43d
000002d0: f278 b03d d155 2bbd 3f2c 973c c211 fcbc
000002e0: 2a45 06bd 10b7 e33d 2d35 3b3e b96a bdbc
000002f0: ecce 913c 4cea 02bd 336c ef3c 2369 163d
00000300: c8d3 373d 670e f1bd 117d 713d 24e6 75bd
00000310: a429 cf3d 098a ea3d a262 c2bd dfc3 b5bd
00000320: 4e60 b0bd 4b1d 88bb c92d 8f3d c47a e8bd
00000330: ecb9 d5bd 84da adbd ce58 e53a ee85 94bc
00000340: 74bf 1cbd 32f8 02be 062a 46bd d0d5 bc3d
00000350: 9f9c aabd d68c 9cbd 5e57 a0bd 1b0d 75bd
00000360: 7ed7 c4bd 6da0 1a3d 7b13 acbd 9caa bf3d
00000370: d50b b43d 03b8 893c 9c35 f7bd 9334 6fbb
00000380: 4bf3 bcbc 130c be3d 0d2b 94bd 09ba bd3d
00000390: abb8 9e3d 44a3 ca3c 1cbe 9b3d 105e a93d
000003a0: e067 a1bc 0b37 a53d 20cc c53b 6a02 bdbd
000003b0: 258a 83bd 48c0 c5bd f258 a4bd fcc0 9bbd
000003c0: 5691 fdbd 67e8 71bd d19f 67bd aed1 96bd
000003d0: 8bcc 933d 5240 d8bd 8e04 a63d 5070 3abd
000003e0: ec57 a23d 3666 58bd 1bb8 edbd 0fab fcbd
000003f0: 9c7b 953d ccfc 0fbd c490 af3d bd6e 683d

model.4.bias f4 [32]
0.017050559 -0.04223536 0.69944197 -0.0014180983 -0.129539 -0.08389188 -0.024637017 0.35308477
-0.11002655 0.07807515 0.6120343 -0.09444863 -0.15779033 0.053294282 0.5816174 -0.08844546
0.0040628575 0.7389932 -0.05213092 0.660257 0.06491368 -0.13544892 0.8499021 0.062956244
0.8939667 -0.039025106 -0.04381072 0.02040829 0.061921224 0.866728 -0.11770472 0.7679629
00000000: 9dad 8b3c fcfe 2cbd a10e 333f 7cdf b9ba
00000010: dfa5 04be 82cf abbd 92d3 c9bc 87c7 b43e
00000020: 9a55 e1bd dde5 9f3d 48ae 1c3f 496e c1bd
00000030: ca93 21be 1b4b 5a3d e1e4 143f e522 b5bd
00000040: b821 853b a92e 3d3f 3b87 55bd 9a06 293f
00000050: 77f1 843d 1fb3 0abe 2f93 593f 34ef 803d
00000060: 00db 643f cad8 1fbd df72 33bd 492f a73c
00000070: 1ca1 7d3d e3e1 5d3f 2c0f f1bd 3799 443f

model.6.weight f4 [1, 32]
-0.055403482 -0.046317242 0.20063081 -0.09650343 0.08614161 -0.020177424 -0.041598946 -0.0027754982
0.031288072 -0.016612858 -6.737107e-05 0.013828376 -0.10431641 -0.11452143 -0.003229934 -0.0908607
0.0024423876 0.23805939 -0.05563767 0.144741 -0.1041249 -0.0010959401 0.21086897 -0.022445142
0.2266184 -0.089519575 -0.08467314 -0.0012075969 -0.10917955 0.22045141 -0.060357694 0.20472096
00000000: c3ee 62bd 26b7 3dbd 2a72 4d3e 97a3 c5bd
00000010: 036b b03d 204b a5bc a863 2abd 22e5 35bb
00000020: ec27 003d b017 88bc 9149 8db8 6a90 623c
00000030: d8a3 d5bd 368a eabd 4dad 53bb 2d15 babd
00000040: 7710 203b d7c5 733e 53e4 63bd fc36 143e
00000050: 703f d5bd a6a5 8fba 09ee 573e e0de b7bc
00000060: a70e 683e 0a56 b7bd 1c69 adbd 3a48 9eba
00000070: 8799 dfbd 04be 613e a139 77bd 5fa2 513e
